tensorflow_data_and_deployment/tensorflow_lite/intro_device_based_model/assignment/model.tflite (tflite, 259728 bytes, 8 tensors)

sequential/dense_1/MatMul f4 [10, 64]
000000 63 0c 72 be bd 7b 98 3e 20 00 23 be c0 83 4c 3e
       -0.23637538 0.29781905 -0.15918016 0.19972134
000010 33 f7 74 bd b1 72 7b be 29 35 d1 3d 9b 73 51 be
       -0.05980606 -0.2455547 0.102152176 -0.20454256
000020 b4 4c 41 be ce 44 65 3e 3c 3a 3b 3e 37 60 a4 3b
       -0.18876916 0.22389528 0.18283933 0.0050163525
000030 63 fe 67 be 1d 00 53 be dc 33 3c 3e 43 15 62 bd
       -0.22655635 -0.20605512 0.18379158 -0.055196058
000040 60 93 80 3e ce a1 43 3c a6 01 1c 3e 5c cd 20 3e
       0.25112438 0.011940433 0.15235004 0.15703338
000050 ac 24 61 3e a1 a4 27 3d 65 9c 42 3e 24 31 af 3e
       0.21986645 0.040928487 0.19004972 0.3421718
000060 b6 7b c5 be ef 27 ca 3c fd da 40 3e 24 57 71 3d
       -0.38570946 0.024677245 0.18833537 0.058920994
000070 9b 95 b2 bd d4 98 34 be 53 2c e1 3d 78 40 1a 3e
       -0.08719941 -0.17636424 0.10994782 0.15063655
000080 05 cd 3c 3e 85 0a 6a 3e fe 06 e4 ba aa b5 5c 3e
       0.18437584 0.22855575 -0.0017397103 0.21553674
000090 29 ae 53 3e 4b cd d7 bd cd 33 db 3d d8 94 52 3e
       0.20671906 -0.105372034 0.107032396 0.20564592
0000a0 60 ba 65 be 82 5c 42 3e fb 0d b2 be 49 4d 91 3e
       -0.22434378 0.18980601 -0.3477629 0.28379276
0000b0 e1 50 92 3d 75 04 64 be cd ef 23 bd d4 6a 08 be
       0.07144333 -0.22267325 -0.040023614 -0.13322002
0000c0 0e ad cc bd b3 da 74 be ce 2d a6 be 61 93 31 3e
       -0.09993945 -0.23911552 -0.3245682 0.17341377
0000d0 16 e8 7e 3e 19 51 23 3e d4 43 85 3e c6 3e 24 bc
       0.24893221 0.15948905 0.2602831 -0.010024732
0000e0 06 a7 4e be c6 6f 71 3e c0 b0 a5 be 0e 8d 8a 3d
       -0.20180902 0.23577794 -0.32361412 0.06765185
0000f0 0e 51 94 3d d2 ac e6 3d 52 7c 8b 3e 28 95 3d be
       0.072420225 0.112634316 0.27243286 -0.1851393
000100 16 e3 af be 80 9a 8b bc b1 fa a0 3e 96 f9 59 be
       -0.3435294 -0.017041445 0.31441262 -0.21286616
000110 3b 7e 7e 3e 46 74 48 3e 23 d7 8a be 4c bc 51 3e
       0.2485284 0.19575605 -0.2711726 0.20481986
000120 bf de 8f 3d 44 73 c9 3c 83 cc 64 be 41 d4 c1 3d
       0.07024907 0.024591096 -0.2234364 0.09464312
000130 13 07 30 be 69 3c 34 3e 3a 35 05 3e c0 08 d6 be
       -0.17190199 0.1760117 0.13008586 -0.4180355
000140 75 be 34 be 8c 99 87 bd cf 40 69 be 77 0c 25 3e
       -0.17650779 -0.066210836 -0.22778629 0.16118036
000150 bf 14 07 be b4 cf 2f be f5 08 13 bd 19 c1 bf bd
       -0.13191508 -0.17169076 -0.035897214 -0.09363002
000160 28 82 bc 3c dc 28 c0 be d6 b9 51 be 0c be 1c be
       0.023011282 -0.37531173 -0.20481047 -0.15306872
000170 45 c2 5e 3e e7 c3 a3 be 60 ae 9f 3e f0 22 28 be
       0.21753795 -0.319854 0.31187725 -0.16419578
000180 bf bb 2b 3d 92 23 99 bd 83 13 7e 3e 73 a9 98 be
       0.041927096 -0.074774876 0.2481213 -0.2981678
000190 b2 2d a5 3e 67 a4 45 be 42 d3 96 3e 3f b3 5a bd
       0.32261425 -0.19300996 0.29458052 -0.0533936
0001a0 16 d6 2d 3e de b6 6e 3e bd de 31 3e 50 bc c2 3e
       0.16976199 0.23311946 0.17370124 0.38034296
0001b0 d1 64 2f be 83 90 7e bd ad d6 bf 3d 93 df 08 3e
       -0.17128302 -0.062149536 0.09367118 0.13366537
0001c0 03 1a 1e be c0 00 92 be df 84 2d 3e 45 20 15 be
       -0.1543961 -0.28516197 0.16945218 -0.14563091
0001d0 6f 6a b6 bc 10 49 11 3e 63 82 93 bd ef 94 39 3e
       -0.022267548 0.14188027 -0.07202604 0.1812322
0001e0 fa df ce bd a5 a3 03 be bc e5 8a be 8b a2 85 3e
       -0.10101314 -0.12855394 -0.27128398 0.26100573
0001f0 dc a6 c5 be 85 24 89 be 97 c7 18 be e8 78 7d 3e
       -0.38603866 -0.26785675 -0.14919887 0.24753153
000200 1f 0d 8e 3e 70 d6 80 be d2 8c 74 3e ec 4d 42 3e
       0.27744386 -0.25163603 0.23881844 0.18975037
000210 3a dc 44 be c7 79 9e bc 48 cb 00 3e a6 90 84 3e
       -0.19224635 -0.019345177 0.12577546 0.25891608
000220 ee f3 45 be 7a 06 13 3e 17 11 23 3d 28 8e 1b 3d
       -0.19331333 0.1435794 0.03981122 0.037977368
000230 1e 6b 34 be 00 b2 93 bc f1 69 bd 3d 4a a0 64 be
       -0.17618987 -0.018029213 0.09248722 -0.2232677
000240 9e 79 40 3d 83 6a 56 3d b2 bc 2d be 85 a2 80 be
       0.046990983 0.05234767 -0.16966513 -0.25123993
000250 6e 7f 21 3e 2a 70 62 3e 55 63 ef be 7c 92 95 3e
       0.15771267 0.221131 -0.46755472 0.2921332
000260 7d 8d 38 be f4 7b a2 bd ee 0a 61 bd bd 35 a7 be
       -0.18022723 -0.079337984 -0.054942064 -0.32658187
000270 16 c3 c8 3c eb b4 8d be d4 d1 e6 bd 3a 02 85 3e
       0.024507087 -0.27677092 -0.1127049 0.2597826
000280 ce 97 98 3e 5f fc 84 bc f3 f3 64 3e 6a 05 d6 3a
       0.29803318 -0.016233621 0.22358684 0.0016328518
000290 d3 fa a0 3d 73 9a 7c 3e ea 9a 79 be b3 c9 f9 bd
       0.07860341 0.24668293 -0.24375501 -0.12196674
0002a0 e5 13 18 3e b7 2b 63 be 67 ff 1f bd 53 e0 6c 3e
       0.14851339 -0.22184645 -0.03906193 0.23132448
0002b0 cc 6b bf bd 29 7b b0 bd d2 23 26 be f3 04 c6 be
       -0.093467325 -0.08617241 -0.16224602 -0.3867565
0002c0 98 18 87 bc a4 b8 52 3e a3 e9 12 be ee 11 80 3e
       -0.01649122 0.20578247 -0.14346938 0.2501368
0002d0 83 be 34 be cb a2 79 bd 04 64 45 3d 5d a0 65 be
       -0.176508 -0.060946267 0.048191085 -0.22424455
0002e0 2d 07 81 3e bf 81 32 3e 13 73 7e 3d 27 5a d1 bd
       0.25200787 0.17432307 0.062121462 -0.10222273
0002f0 05 32 57 3e 13 1b 25 be 00 ba 7d be e8 e8 79 3e
       0.21015175 -0.16123609 -0.24777985 0.24405253
000300 90 f1 9f be f3 56 ba bd 4d 03 1a 3e 27 28 26 3e
       -0.31238985 -0.090986155 0.15040322 0.16226254
000310 99 8c 53 3e 4b 75 18 3e 4b 78 95 3d b7 70 22 be
       0.20659102 0.14888494 0.07298335 -0.1586331
000320 92 8c 73 3e 77 47 3a 3e 35 59 4a 3d d9 5c 0b 3e
       0.23784092 0.18191324 0.04940148 0.13609637
000330 43 c1 0f be b8 e9 6e 3e 14 bc 60 be db ee b1 3d
       -0.14038567 0.23331344 -0.21946746 0.08688136
000340 f9 3b 7c 3e e8 7d aa 3e 95 a1 4b be 8b f1 90 be
       0.24632253 0.33299184 -0.19885857 -0.28309283
000350 cf d5 fa 3d 91 8c 45 be 39 51 c8 3d 48 98 2e 3d
       0.12247812 -0.19291903 0.09781117 0.042625695
000360 e7 bd 41 3e 88 49 73 3d 5d 5c 31 3d c6 00 64 be
       0.18920098 0.059396297 0.043300975 -0.2226592
000370 a2 16 ee 3d aa a4 d2 be cc 9e d0 bd 07 38 3e be
       0.116254106 -0.41141254 -0.10186538 -0.1857606
000380 8b 2b d5 3d ba c4 82 3e 92 87 49 3d 74 ff 97 be
       0.10408696 0.25540715 0.049201556 -0.29687083
000390 9e 54 6b bd aa 61 44 3e b3 8a ad bd c3 cc a5 be
       -0.057453744 0.19177881 -0.084737204 -0.32382783
0003a0 a2 cf 29 3e 25 9d 86 be ce 0a 28 bd bd 08 09 be
       0.16583112 -0.26291767 -0.04102593 -0.1338224
0003b0 ca 63 1c bd 61 b8 90 3d 23 81 73 be fe 05 32 3d
       -0.038181104 0.070664175 -0.2377973 0.043462746
0003c0 fb 56 bd be 71 65 d9 3d e7 8c 22 be a6 f7 0f bc
       -0.36980423 0.106150515 -0.15874062 -0.008787071
0003d0 70 d3 27 3e 96 78 93 3e b9 e0 70 be 2d 15 32 be
       0.16389251 0.28802937 -0.23523225 -0.1739089
0003e0 15 be 82 3e 44 47 4e be 80 21 89 3e f4 c8 63 be
       0.25535646 -0.20144373 0.2678337 -0.22244626
0003f0 a4 32 1c be ca 67 f3 3d f9 c1 3e be 6e 06 73 3c
       -0.15253693 0.118850306 -0.18628682 0.014833076

sequential/dense_1/BiasAdd/ReadVariableOp f4 [10]
000000 25 89 15 bc 8e ba cd bc e6 d5 50 3d bf 40 90 ba
       -0.009126936 -0.02511337 0.05098524 -0.0011005624
000010 49 70 d4 bc c3 e4 bf bc 9c 8b 2c 3c 47 7b b5 3c
       -0.025932448 -0.023424512 0.010531332 0.02215351
000020 c0 20 7b bd 43 8d 9f 3c
       -0.06131053 0.019476539

sequential/dense/BiasAdd/ReadVariableOp f4 [64]
000000 7b 75 61 3d ce 0d 42 ba dd 27 50 3b 60 30 ef 3c
       0.05504368 -0.000740257 0.0031762042 0.029197872
000010 10 fc 0a bd df 7b 4c bc 18 b9 8b ba d7 68 bb 3c
       -0.03393179 -0.012480705 -0.0010660021 0.02287714
000020 23 bc c4 bb 15 dd 4b 3d f7 58 e3 bb 6a aa 04 3d
       -0.006003873 0.049771387 -0.0069380957 0.032389082
000030 fe bf a7 bb 19 49 3d 3c a6 67 b1 3c 48 e4 18 bb
       -0.005119323 0.011553072 0.021655869 -0.0023329426
000040 57 23 17 3d fd 10 71 3c 6d d0 eb bc 4f fe b0 bb
       0.036898937 0.014713523 -0.028785909 -0.0054014097
000050 da 87 1c 3d 46 d4 b1 3c 01 31 d1 bc d4 a0 5f 3c
       0.038215496 0.021707665 -0.025536062 0.013649184
000060 85 47 2e bc f6 0f 0e bb ed b5 4f bc a4 a2 82 3c
       -0.010637169 -0.0021676994 -0.012677652 0.015946694
000070 fb bf c4 bb fe 4c a5 bb 8b fe 8c 3c be 78 c5 bb
       -0.006004331 -0.0050445786 0.01721122 -0.0060263565
000080 ce 64 ea 3c 3d 64 c8 bb 0a bb c4 bb 56 59 d8 ba
       0.02861252 -0.006115465 -0.006003742 -0.0016506116
000090 f4 90 8b 3b 6b 68 3b 3d d1 b0 17 3c 07 d2 f1 3c
       0.004259223 0.045753878 0.009258465 0.029519094
0000a0 24 46 47 bb d9 df d6 bb 53 a4 b5 3c 54 6f 71 3d
       -0.0030406797 -0.0065574464 0.022173082 0.05894406
0000b0 60 f4 bb 3b 65 2d 31 3c 91 51 9d bc cd 69 a2 bc
       0.005735919 0.010814046 -0.019203933 -0.01982584
0000c0 03 0c 2d 3c 99 db 4e 3b 74 d1 b8 bc 48 99 5b 3d
       0.010561946 0.0031563996 -0.022560813 0.053612977
0000d0 b9 21 e1 bb 20 02 96 3a 65 52 c1 bc 2f 36 fc bc
       -0.006870475 0.0011444725 -0.02359886 -0.030787556
0000e0 82 13 cd bb f7 21 9c bb 72 da 30 bc 7f af bc bb
       -0.006258429 -0.004764791 -0.010794269 -0.0057582255
0000f0 52 01 5f 3d 8a fe 0c bb cd 10 1e bc 1e 9c 72 3c
       0.05444462 -0.0021514022 -0.00964756 0.014807729

sequential/conv2d/BiasAdd/ReadVariableOp f4 [16]
000000 c0 81 81 3d e1 6b e8 ba 61 c5 4b 3a b5 58 72 3b
       0.06323576 -0.0017732346 0.0007773247 0.0036979143
000010 19 3b 73 bb 0e 34 a0 bb 12 dc 75 bb 33 93 c0 ba
       -0.0037114082 -0.004889018 -0.0037515205 -0.0014692306
000020 98 a7 06 bc 07 5f d1 bb 3b 49 5f 3d 9e ca d3 3d
       -0.008218668 -0.006389502 0.054513197 0.103413805
000030 a6 38 e0 3b 87 dc 83 bb 6e 39 22 3c e4 88 cb 3d
       0.0068426905 -0.0040240916 0.009901388 0.09938219

sequential/conv2d_1/BiasAdd/ReadVariableOp f4 [32]
000000 ff 79 ab 3c f7 91 c3 3c cf ad 83 3c c8 73 ef bb
       0.020932196 0.023873312 0.01607409 -0.0073075034
000010 9f a7 3d 3d 84 88 b5 3d 4d 90 79 bc 9f ea 67 3d
       0.046302434 0.08863929 -0.015232158 0.056620236
000020 5c c3 e4 3d 9e d6 66 bd 7c 0a 09 3e fa 30 a6 3d
       0.11170074 -0.05635702 0.13382906 0.0811481
000030 93 7b 91 3c bd 1e b1 3d c6 62 d6 39 9a 0e 56 3d
       0.01775912 0.08648441 0.00040890853 0.05226002
000040 ab 82 d1 3d c9 35 db 3d 7e 4a 09 3d fe 08 85 3d
       0.10230001 0.10703618 0.033518307 0.06495856
000050 24 b3 e3 3b 70 44 3d 3d 4f 4c 43 3d 77 eb 24 3c
       0.0069488455 0.046207845 0.047680195 0.010065905
000060 2f ba 33 3d 61 ac 3f bd e1 79 4a 3d 4f 5a 7e 3d
       0.04387873 -0.046795253 0.04943264 0.062097844
000070 e0 93 f2 bc ab aa cf bc 69 91 c2 3c 9c a6 6c 3c
       -0.029611528 -0.025349936 0.023750978 0.01444402

sequential/conv2d/Conv2D f4 [16, 3, 3, 1]
000000 d1 fd 1c be 5c 36 bf be 87 b7 21 3e 5b 36 39 be
       -0.15331198 -0.3734616 0.15792666 -0.18087141
000010 1c 72 ed be 52 e9 ff 3c 04 92 e9 3d 77 9a 26 be
       -0.4637612 0.031239185 0.114048034 -0.16269861
000020 83 26 44 3e 52 b1 10 bc da 8f 42 bd 91 26 e3 bc
       0.19155316 -0.008831339 -0.04750047 -0.02772835
000030 af ea 13 be 8c 19 20 3e 74 53 05 3e 74 53 82 be
       -0.14444993 0.15634745 0.13020116 -0.25454295
000040 44 30 8d 3e 2b ed 84 bd a4 69 4d 3e 6f 73 13 be
       0.27575886 -0.06490549 0.2005983 -0.14399503
000050 c1 a0 b5 bd 2f 1f cd 3b 6d 27 3b be e5 29 5d 3e
       -0.08868552 0.006259821 -0.18276758 0.21598013
000060 8e 7f 39 3e bc 76 98 be 63 a7 dd 3d 3f 21 d6 3d
       0.18115065 -0.29778087 0.10822942 0.1045556
000070 a8 73 d0 3d d3 ca 1f be 1d 90 82 3e d8 a1 c0 3d
       0.1017831 -0.15604715 0.25500575 0.09405869
000080 14 6e 12 3d ba 53 73 3d 22 0a 27 be 45 d3 9a be
       0.03574951 0.05940602 -0.16312459 -0.3023931
000090 3d 19 01 bd 08 07 00 3e b5 4b 82 bd 22 2c 1b 3e
       -0.03151821 0.12502682 -0.06362096 0.15153554
0000a0 3e 69 77 bd 91 ac d1 3a 2d d6 d9 3d 98 86 85 be
       -0.0604031 0.0015996863 0.10636554 -0.2607925
0000b0 41 ef 23 3e 73 fc 98 3e 48 9a 37 be af a5 09 be
       0.16009237 0.29880103 -0.17929947 -0.1344211
0000c0 09 85 5b bd 6c 0c 25 3e 01 b1 ef bd 6b 09 8c 3e
       -0.05359367 0.1611802 -0.11703683 0.27350935
0000d0 99 2b 2e bd 0c e9 f8 3d e2 ac 57 be b9 15 67 3e
       -0.042522047 0.12153825 -0.21062043 0.2256688
0000e0 30 e9 3b 3e 18 d1 b0 3d 5b 69 22 3e f0 2e 48 3e
       0.18350673 0.086336315 0.15860502 0.19549155
0000f0 e2 aa 6f 3e 75 c8 f0 3d db e0 82 be 5f 2a 7b 3e
       0.2340503 0.11756984 -0.25562176 0.24527882
000100 20 72 07 be 19 7d f7 bd a1 d9 d7 3d 90 e4 4a 3e
       -0.13227129 -0.12084407 0.10539556 0.19813752
000110 02 dc 8f be 17 ed 8e be e5 b0 6d 3e 6e d3 35 3d
       -0.2809754 -0.2791526 0.23212011 0.04439109
000120 2a 79 4a 3e 50 be 3b 3e cb 66 11 3e fa 2c 2a be
       0.19772783 0.18334317 0.14199369 -0.1661872
000130 fe 4a ac 3b 8b 31 30 be 9f 7d 9b 3d e0 a8 35 be
       0.005257963 -0.17206399 0.0759232 -0.17740202
000140 97 c0 45 3e 82 e7 7d 3e 14 c7 88 be ad fc 76 be
       0.19311748 0.24795344 -0.26714385 -0.24119826
000150 ea c4 af 3b cb a0 56 3e c7 e8 80 bd 0e 0c 8d 3c
       0.00536405 0.20959775 -0.06294399 0.017217662
000160 74 e2 59 3e af 8e 8a 3e a4 93 94 bd 3e e5 a9 bd
       0.21277791 0.27061984 -0.07254723 -0.082956776
000170 36 46 7b be 81 7b 17 be 0c 19 80 bd fc 93 39 3e
       -0.24538502 -0.14793207 -0.06254777 0.18122858
000180 71 0b 87 3d 0e 2b da 3d 51 a0 3f 3e 42 88 b8 be
       0.06593979 0.10652743 0.187135 -0.36041456
000190 21 d2 93 be 36 fc 1f bf 46 cf 30 3e 6a c2 0e bf
       -0.28871253 -0.6249422 0.17266569 -0.557654
0001a0 e3 1b ae be 32 02 48 3e 8f b1 a8 bd 19 cf f2 be
       -0.3400565 0.19532087 -0.082369916 -0.47423628
0001b0 e3 26 4c be 24 97 ee 3d 9e 7d 47 be 8b 42 81 bd
       -0.19936709 0.116499215 -0.19481513 -0.0631152
0001c0 cb 53 ac 3d df b5 cc 3d 2e 65 e9 bc 74 a6 2c 3d
       0.0841442 0.09995627 -0.028490629 0.04215093
0001d0 5d a7 2b 3e 46 44 54 3e 06 b0 f6 3c 7d 6f 56 be
       0.16763063 0.20729169 0.030113231 -0.20940967
0001e0 17 b9 28 3e 56 1e a0 3d 31 a5 19 be b6 a5 a7 3b
       0.16476856 0.07818286 -0.15004422 0.00511619
0001f0 ff f3 8b 3e 1f 6f 51 3d 1c ac 4d 3d 2a 38 18 3e
       0.27334592 0.051131364 0.050212964 0.14865175
000200 af 36 54 be 45 1d cd 3d d7 06 7b bc 4c ab bf bd
       -0.20723985 0.10015348 -0.015321455 -0.09358844
000210 a0 4a fb 3d f7 99 11 3e 13 69 84 be 92 e1 02 bf
       0.12270093 0.14218889 -0.25861415 -0.51125443
000220 41 97 09 bf 64 1e 3e be ec d0 0b be b2 be 15 bf
       -0.5374642 -0.1856628 -0.13653916 -0.584941
000230 13 27 5a be 01 49 3a 3e 5b a9 84 3d 5a 49 14 3e
       -0.21303968 0.18191911 0.064776145 0.14481106

sequential/conv2d_1/Conv2D i1 [32, 3, 3, 16]
000000 ff d9 f3 01 e2 f4 d5 0c 01 10 db 22 f7 e3 f0 06
       -1 -39 -13 1 -30 -12 -43 12 1 16 -37 34 -9 -29 -16 6
000010 09 dc e7 db e7 e3 c9 03 03 e7 d7 7a e6 de f4 0e
       9 -36 -25 -37 -25 -29 -55 3 3 -25 -41 122 -26 -34 -12 14
000020 58 f1 04 b8 d7 09 d1 ea e6 e3 f2 70 38 19 fa 7f
       88 -15 4 -72 -41 9 -47 -22 -26 -29 -14 112 56 25 -6 127
000030 d4 1d 22 18 f1 08 0c fe 22 f1 d9 f7 f1 26 ee c8
       -44 29 34 24 -15 8 12 -2 34 -15 -39 -9 -15 38 -18 -56
000040 c1 c1 0c da fc e0 d4 10 da 20 c3 59 e4 26 0b 07
       -63 -63 12 -38 -4 -32 -44 16 -38 32 -61 89 -28 38 11 7
000050 f7 f4 2e d0 19 09 f9 23 0a 13 26 41 06 f0 21 f5
       -9 -12 46 -48 25 9 -7 35 10 19 38 65 6 -16 33 -11
000060 bf fa dd 33 f6 03 21 13 07 18 16 29 2e 1b f1 af
       -65 -6 -35 51 -10 3 33 19 7 24 22 41 46 27 -15 -81
000070 c6 b3 15 ea 3b ff ed 06 1d 22 e4 2e f0 ef 03 f6
       -58 -77 21 -22 59 -1 -19 6 29 34 -28 46 -16 -17 3 -10
000080 fa 45 11 08 27 41 2b 77 07 4b 20 12 64 56 fe fd
       -6 69 17 8 39 65 43 119 7 75 32 18 100 86 -2 -3
000090 cc 07 34 fd d6 16 c9 4c 13 00 0f 19 37 19 29 2d
       -52 7 52 -3 -42 22 -55 76 19 0 15 25 55 25 41 45
0000a0 18 f1 ff 17 03 02 df 1c fa 1b 4b 58 51 f2 e6 55
       24 -15 -1 23 3 2 -33 28 -6 27 75 88 81 -14 -26 85
0000b0 20 cc d2 00 ee 03 04 cb 24 e0 19 38 13 02 fa 7f
       32 -52 -46 0 -18 3 4 -53 36 -32 25 56 19 2 -6 127
0000c0 df 1f de 21 e9 f6 19 21 08 28 d1 fe 1b 29 f5 b7
       -33 31 -34 33 -23 -10 25 33 8 40 -47 -2 27 41 -11 -73
0000d0 fc 2c e6 f6 0a 1a e5 d9 2e e9 25 f8 13 dc e2 0d
       -4 44 -26 -10 10 26 -27 -39 46 -23 37 -8 19 -36 -30 13
0000e0 fb 0b 09 2d e9 03 18 bf 0a ee f9 29 c8 d7 cf 09
       -5 11 9 45 -23 3 24 -65 10 -18 -7 41 -56 -41 -49 9
0000f0 d0 ef fe 55 2f 11 1b f6 15 dd ea f8 c9 ff fe d6
       -48 -17 -2 85 47 17 27 -10 21 -35 -22 -8 -55 -1 -2 -42

sequential/dense/MatMul i1 [64, 3872] scale=0.0030738157 zero_point=0
000000 fc 0e 0a 04 05 fd 11 0c 18 0c fb fc 0e 16 08 fe
       -0.012295263 0.04303342 0.030738156 0.012295263 0.015369078 -0.009221448 0.052254867 0.03688579 0.07377158 0.03688579 -0.015369078 -0.012295263 0.04303342 0.06762394 0.024590526 -0.0061476314
000010 f6 0a 24 1a 12 0a 29 25 0b 0d 14 0e 12 0e 03 0c
       -0.030738156 0.030738156 0.110657364 0.07991921 0.055328682 0.030738156 0.12602645 0.11373118 0.03381197 0.039959606 0.061476313 0.04303342 0.055328682 0.04303342 0.009221448 0.03688579
000020 03 f8 d9 00 fb dd 0e 09 0b 15 0e f2 ff f7 0e f9
       0.009221448 -0.024590526 -0.11987881 0.0 -0.015369078 -0.10758355 0.04303342 0.027664341 0.03381197 0.06455013 0.04303342 -0.04303342 -0.0030738157 -0.027664341 0.04303342 -0.02151671
000030 10 08 06 08 ee 07 0f 0b 0d f0 fd 09 f7 23 ed 01
       0.04918105 0.024590526 0.018442895 0.024590526 -0.055328682 0.02151671 0.046107236 0.03381197 0.039959606 -0.04918105 -0.009221448 0.027664341 -0.027664341 0.10758355 -0.058402497 0.0030738157
000040 09 04 ff f0 fb 11 0a 1e fb fc ea ed ff f2 f9 fe
       0.027664341 0.012295263 -0.0030738157 -0.04918105 -0.015369078 0.052254867 0.030738156 0.09221447 -0.015369078 -0.012295263 -0.06762394 -0.058402497 -0.0030738157 -0.04303342 -0.02151671 -0.0061476314
000050 fe 08 08 e6 f4 13 02 f6 f9 1e 01 02 fb fb ed f9
       -0.0061476314 0.024590526 0.024590526 -0.07991921 -0.03688579 0.058402497 0.0061476314 -0.030738156 -0.02151671 0.09221447 0.0030738157 0.0061476314 -0.015369078 -0.015369078 -0.058402497 -0.02151671
000060 fd fa e8 e0 f8 08 01 f3 0b 13 02 ee 10 03 12 f6
       -0.009221448 -0.018442895 -0.07377158 -0.0983621 -0.024590526 0.024590526 0.0030738157 -0.039959606 0.03381197 0.058402497 0.0061476314 -0.055328682 0.04918105 0.009221448 0.055328682 -0.030738156
000070 f1 04 ee fb 07 f3 d9 0b 06 11 fc fb 05 27 ef fa
       -0.046107236 0.012295263 -0.055328682 -0.015369078 0.02151671 -0.039959606 -0.11987881 0.03381197 0.018442895 0.052254867 -0.012295263 -0.015369078 0.015369078 0.11987881 -0.052254867 -0.018442895
000080 eb 10 e0 f5 e8 fa 2f 09 f2 02 08 00 13 02 2d f9
       -0.06455013 0.04918105 -0.0983621 -0.03381197 -0.07377158 -0.018442895 0.14446934 0.027664341 -0.04303342 0.0061476314 0.024590526 0.0 0.058402497 0.0061476314 0.13832171 -0.02151671
000090 f5 08 fb 14 f6 16 eb 1d 09 ff e6 f7 fe 41 0f fd
       -0.03381197 0.024590526 -0.015369078 0.061476313 -0.030738156 0.06762394 -0.06455013 0.08914065 0.027664341 -0.0030738157 -0.07991921 -0.027664341 -0.0061476314 0.19979802 0.046107236 -0.009221448
0000a0 fe 15 08 08 ff 01 00 f7 03 fd f9 18 09 0a 10 fc
       -0.0061476314 0.06455013 0.024590526 0.024590526 -0.0030738157 0.0030738157 0.0 -0.027664341 0.009221448 -0.009221448 -0.02151671 0.07377158 0.027664341 0.030738156 0.04918105 -0.012295263
0000b0 f1 00 f2 03 f4 1f 04 23 03 ff 13 09 01 3a 0d e7
       -0.046107236 0.0 -0.04303342 0.009221448 -0.03688579 0.095288284 0.012295263 0.10758355 0.009221448 -0.0030738157 0.058402497 0.027664341 0.0030738157 0.1782813 0.039959606 -0.07684539
0000c0 f6 1d f0 0e f8 f8 f8 0d 06 05 1d f3 04 08 fb f1
       -0.030738156 0.08914065 -0.04918105 0.04303342 -0.024590526 -0.024590526 -0.024590526 0.039959606 0.018442895 0.015369078 0.08914065 -0.039959606 0.012295263 0.024590526 -0.015369078 -0.046107236
0000d0 e5 fe ec 05 f7 24 fd 0a 07 1e 01 f0 01 18 1a f0
       -0.08299302 -0.0061476314 -0.061476313 0.015369078 -0.027664341 0.110657364 -0.009221448 0.030738156 0.02151671 0.09221447 0.0030738157 -0.04918105 0.0030738157 0.07377158 0.07991921 -0.04918105
0000e0 04 fd fb 07 f9 f7 0a 03 20 f7 07 04 17 07 05 ec
       0.012295263 -0.009221448 -0.015369078 0.02151671 -0.02151671 -0.027664341 0.030738156 0.009221448 0.0983621 -0.027664341 0.02151671 0.012295263 0.07069776 0.02151671 0.015369078 -0.061476313
0000f0 f1 f6 0a 18 ef 02 04 02 10 14 13 e8 f3 14 f7 ef
       -0.046107236 -0.030738156 0.030738156 0.07377158 -0.052254867 0.0061476314 0.012295263 0.0061476314 0.04918105 0.061476313 0.058402497 -0.07377158 -0.039959606 0.061476313 -0.027664341 -0.052254867
